__________________________________________________________________________________________________
Layer (type)                    Output Shape         Param #     Connected to                     
==================================================================================================
Soil_inp (InputLayer)           (None, 1)            0                                            
__________________________________________________________________________________________________
Elevation_in (InputLayer)       (None, 1)            0                                            
__________________________________________________________________________________________________
Aspect_in (InputLayer)          (None, 1)            0                                            
__________________________________________________________________________________________________
Slope_in (InputLayer)           (None, 1)            0                                            
__________________________________________________________________________________________________
Horizontal_Distance_To_Hydrolog (None, 1)            0                                            
__________________________________________________________________________________________________
Vertical_Distance_To_Hydrology_ (None, 1)            0                                            
__________________________________________________________________________________________________
Horizontal_Distance_To_Roadways (None, 1)            0                                            
__________________________________________________________________________________________________
Hillshade_9am_in (InputLayer)   (None, 1)            0                                            
__________________________________________________________________________________________________
Hillshade_Noon_in (InputLayer)  (None, 1)            0                                            
__________________________________________________________________________________________________
Hillshade_3pm_in (InputLayer)   (None, 1)            0                                            
__________________________________________________________________________________________________
Horizontal_Distance_To_Fire_Poi (None, 1)            0                                            
__________________________________________________________________________________________________
Wilderness_Area1_in (InputLayer (None, 1)            0                                            
__________________________________________________________________________________________________
Wilderness_Area2_in (InputLayer (None, 1)            0                                            
__________________________________________________________________________________________________
Wilderness_Area3_in (InputLayer (None, 1)            0                                            
__________________________________________________________________________________________________
Wilderness_Area4_in (InputLayer (None, 1)            0                                            
__________________________________________________________________________________________________
embedding_1 (Embedding)         (None, 1, 15)        600         Soil_inp[0][0]                   
__________________________________________________________________________________________________
reshape_1 (Reshape)             (None, 1, 1)         0           Elevation_in[0][0]               
__________________________________________________________________________________________________
reshape_2 (Reshape)             (None, 1, 1)         0           Aspect_in[0][0]                  
__________________________________________________________________________________________________
reshape_3 (Reshape)             (None, 1, 1)         0           Slope_in[0][0]                   
__________________________________________________________________________________________________
reshape_4 (Reshape)             (None, 1, 1)         0           Horizontal_Distance_To_Hydrology_
__________________________________________________________________________________________________
reshape_5 (Reshape)             (None, 1, 1)         0           Vertical_Distance_To_Hydrology_in
__________________________________________________________________________________________________
reshape_6 (Reshape)             (None, 1, 1)         0           Horizontal_Distance_To_Roadways_i
__________________________________________________________________________________________________
reshape_7 (Reshape)             (None, 1, 1)         0           Hillshade_9am_in[0][0]           
__________________________________________________________________________________________________
reshape_8 (Reshape)             (None, 1, 1)         0           Hillshade_Noon_in[0][0]          
__________________________________________________________________________________________________
reshape_9 (Reshape)             (None, 1, 1)         0           Hillshade_3pm_in[0][0]           
__________________________________________________________________________________________________
reshape_10 (Reshape)            (None, 1, 1)         0           Horizontal_Distance_To_Fire_Point
__________________________________________________________________________________________________
reshape_11 (Reshape)            (None, 1, 1)         0           Wilderness_Area1_in[0][0]        
__________________________________________________________________________________________________
reshape_12 (Reshape)            (None, 1, 1)         0           Wilderness_Area2_in[0][0]        
__________________________________________________________________________________________________
reshape_13 (Reshape)            (None, 1, 1)         0           Wilderness_Area3_in[0][0]        
__________________________________________________________________________________________________
reshape_14 (Reshape)            (None, 1, 1)         0           Wilderness_Area4_in[0][0]        
__________________________________________________________________________________________________
concatenate_1 (Concatenate)     (None, 1, 29)        0           embedding_1[0][0]                
                                                                 reshape_1[0][0]                  
                                                                 reshape_2[0][0]                  
                                                                 reshape_3[0][0]                  
                                                                 reshape_4[0][0]                  
…
                                                                 reshape_10[0][0]                 
                                                                 reshape_11[0][0]                 
                                                                 reshape_12[0][0]                 
                                                                 reshape_13[0][0]                 
                                                                 reshape_14[0][0]                 
__________________________________________________________________________________________________
flatten_1 (Flatten)             (None, 29)           0           concatenate_1[0][0]              
__________________________________________________________________________________________________
dense_1 (Dense)                 (None, 272)          8160        flatten_1[0][0]                  
__________________________________________________________________________________________________
dense_2 (Dense)                 (None, 272)          74256       dense_1[0][0]                    
__________________________________________________________________________________________________
dense_3 (Dense)                 (None, 272)          74256       dense_2[0][0]                    
__________________________________________________________________________________________________
dense_4 (Dense)                 (None, 272)          74256       dense_3[0][0]                    
__________________________________________________________________________________________________
dense_5 (Dense)                 (None, 272)          74256       dense_4[0][0]                    
__________________________________________________________________________________________________
dense_6 (Dense)                 (None, 272)          74256       dense_5[0][0]                    
__________________________________________________________________________________________________
cross_layer (CrossLayer)        (None, 29)           464         concatenate_1[0][0]              
__________________________________________________________________________________________________
concatenate_2 (Concatenate)     (None, 301)          0           dense_6[0][0]                    
                                                                 cross_layer[0][0]                
__________________________________________________________________________________________________
dense_7 (Dense)                 (None, 7)            2114        concatenate_2[0][0]              
==================================================================================================
Total params: 382,618
Trainable params: 382,618
Non-trainable params: 0
__________________________________________________________________________________________________
None
Epoch 1/10

   256/522910 [..............................] - ETA: 4:55:56 - loss: 2.2209 - acc: 0.1875
…
